INFO 2022-09-21 15:00:49,303 [trainer.py:__init__:43] Model Info
=========================================================================================================
Layer (type:depth-idx)                                  Output Shape              Param #
=========================================================================================================
YOLOV5                                                  [1, 25200, 12]            --
├─CSPDarknet: 1-1                                       [1, 128, 80, 80]          --
│    └─ConvBnAct: 2-1                                   [1, 32, 320, 320]         3,520
│    └─Sequential: 2-2                                  [1, 64, 160, 160]         37,376
│    └─Sequential: 2-3                                  [1, 128, 80, 80]          189,696
│    └─Sequential: 2-4                                  [1, 256, 40, 40]          920,576
│    └─Sequential: 2-5                                  [1, 512, 20, 20]          3,020,288
├─PAFPN: 1-2                                            [1, 128, 80, 80]          --
│    └─ConvBnAct: 2-6                                   [1, 256, 20, 20]          131,584
│    └─Upsample: 2-7                                    [1, 256, 40, 40]          --
│    └─Concat: 2-8                                      [1, 512, 40, 40]          --
│    └─C3Bottleneck: 2-9                                [1, 256, 40, 40]          361,984
│    └─ConvBnAct: 2-10                                  [1, 128, 40, 40]          33,024
│    └─Upsample: 2-11                                   [1, 128, 80, 80]          --
│    └─Concat: 2-12                                     [1, 256, 80, 80]          --
│    └─C3Bottleneck: 2-13                               [1, 128, 80, 80]          90,880
│    └─ConvBnAct: 2-14                                  [1, 128, 40, 40]          147,712
│    └─Concat: 2-15                                     [1, 256, 40, 40]          --
│    └─C3Bottleneck: 2-16                               [1, 256, 40, 40]          296,448
│    └─ConvBnAct: 2-17                                  [1, 256, 20, 20]          590,336
│    └─Concat: 2-18                                     [1, 512, 20, 20]          --
│    └─C3Bottleneck: 2-19                               [1, 512, 20, 20]          1,182,720
├─YOLOV5Head: 1-3                                       [1, 25200, 12]            --
=========================================================================================================
Total params: 7,038,508
Trainable params: 7,038,508
Non-trainable params: 0
Total mult-adds (G): 8.11
=========================================================================================================
Input size (MB): 4.92
Forward/backward pass size (MB): 377.61
Params size (MB): 26.05
…
